Semester B/Deep Learning and Computer Vision/projects/project1/code/model/model.pth (torch_old, 33592 bytes, 5 tensors)

conv1.weight f4 [64, 1, 9, 9]
000000 26 82 5e 3d be 6f d5 3d f2 10 47 bd df e7 9b bd
       0.054323338 0.10421704 -0.048600145 -0.07612585
000010 04 ce 4c bd 1b 15 f7 3b b0 38 87 bc 14 1e a7 3d
       -0.05000116 0.0075403578 -0.016506523 0.08160034
000020 00 ab bb 3b ce 40 6b 3d 76 7a 5d bc 5c ed 73 bb
       0.005727172 0.05743485 -0.0135179665 -0.0037220335
000030 78 d2 d8 bd cf d4 9f bd 4b 6e 7b bd 8d 90 4f bc
       -0.10587019 -0.07804262 -0.06138448 -0.012668741
000040 e1 3f b3 3c 8f 5b 7c 3d 2b 59 a5 bd b3 58 93 bd
       0.021881046 0.061610755 -0.08073648 -0.071946524
000050 62 85 e3 3c ca ed d8 3d 36 14 9b 3c bc 2d d9 3d
       0.027773563 0.1059223 0.018930536 0.10604426
000060 e2 e7 be bc 1f 04 86 bc 0f b9 aa 3d a3 42 f2 bd
       -0.02330393 -0.016359387 0.083360784 -0.11829116
000070 0b 79 dd bd 9a 56 ca bc 8a 86 f5 3c 0c ad 6e 3e
       -0.10814103 -0.024699498 0.02997138 0.233082
000080 cf aa 0a 3d c4 90 57 bc 6c 21 c3 bd c9 f8 03 be
       0.033854302 -0.013157073 -0.09527859 -0.12887873
000090 e4 e0 7a bd 21 0a 8c 3d 8e 59 7f 3d 41 20 0c 3e
       -0.06124963 0.068378694 0.062341265 0.13684179
0000a0 1b b1 2b 3e 43 48 a5 3d 9d f1 a3 3d 19 ab e0 bd
       0.16766779 0.080704235 0.080050685 -0.10970134
0000b0 00 23 d2 bd ee 91 33 bd aa 95 82 3d ab 3c 9f 3d
       -0.10260582 -0.04384034 0.063762024 0.07775243
0000c0 c8 29 24 bc 40 3b a1 3d 8d e7 0d 3e f8 54 07 3e
       -0.010019727 0.07872629 0.13857861 0.13216007
0000d0 d9 2f 10 3d 7d 2c 9d bb 41 9a c4 3d 7f 99 5a bd
       0.03520188 -0.004796563 0.09599734 -0.05336904
0000e0 aa 79 f3 3c ac e6 c6 bd 1a 51 a5 bd 85 e5 78 bd
       0.0297211 -0.09711966 -0.080721095 -0.060765762
0000f0 eb 52 3b 3d e4 79 27 3d 6c 88 88 bd 3d 8a 63 3d
       0.045733374 0.04088773 -0.066666454 0.055551756
000100 8b e1 ba 3d 5f 56 e4 3b 42 cc 6e 39 5d 51 1e 3c
       0.0912505 0.006968304 0.0002277354 0.009662953
000110 5a fc 1c 3d 3d fd a2 3d ea e9 cf bd 6a ac 11 bd
       0.0383266 0.079584576 -0.101520374 -0.035564817
000120 5a 6d 68 3d 45 44 e9 3d d1 35 dc 3d 39 6c dd 3d
       0.05674491 0.113899745 0.10752452 0.108116575
000130 c5 38 b3 3c c4 fb fe bd 53 73 de bc 7a cc e2 bd
       0.021877656 -0.12450364 -0.0271546 -0.11074157
000140 f8 ad fa bd 68 26 d5 3d 0b e8 c4 3d b4 a6 b5 bd
       -0.12240213 0.10407716 0.09614571 -0.08869687
000150 d1 01 0c 3d fb 79 dd 3b db 45 d1 bb b1 25 34 bd
       0.03418142 0.006758926 -0.0063865012 -0.043981258
000160 7d df 70 3d 57 70 1e bd 22 d1 48 3d fd 0a 8f 3d
       0.058806885 -0.038681354 0.04902757 0.06984518
000170 c4 e8 d0 3d 39 a4 52 3d b0 45 b9 bd 7a 99 6d bd
       0.102006465 0.051426146 -0.09046495 -0.058007695
000180 18 ab 90 3d 55 b7 45 3d 5e a2 40 bd 71 5d 56 bd
       0.070638835 0.048270542 -0.047029845 -0.052335206
000190 b4 5e f4 3d 05 fb c2 3d cc ca 0e bd 1d 6f c1 3b
       0.11932126 0.095205344 -0.03486137 0.0059031383
0001a0 6d 45 9b bd be 8c c0 3c fd 3e 82 bd d9 76 6c bd
       -0.07581601 0.023504611 -0.0635967 -0.05773053
0001b0 a2 49 b1 3b 35 2a b0 3c 83 e6 e8 bc 6c d2 d0 3d
       0.005410389 0.0215045 -0.028430229 0.10196385
0001c0 29 2f 58 3c a0 9e 2f 3e 6e 38 fe 3d e1 81 91 bd
       0.013194838 0.17150354 0.12413107 -0.071048506
0001d0 29 c4 25 bb 4b c2 95 3c 32 89 99 3c bb f9 34 3d
       -0.0025293923 0.018281123 0.018742178 0.044183474
0001e0 f1 33 c6 3d 99 8b f4 3d 6b d4 27 3d 92 d0 da 3d
       0.09677876 0.11940689 0.040974062 0.10684313
0001f0 ee e8 bd bd 48 27 62 bd 93 42 bd bc 54 d5 66 bd
       -0.092729434 -0.055213243 -0.023103034 -0.05635579
000200 8d d9 d8 bc d3 1d 56 bd 00 00 7a 3d 99 3b b4 3d
       -0.026470924 -0.052274536 0.061035156 0.0880043
000210 e6 b6 34 bd e2 3a d1 bb 91 e7 ab 3d 60 9a 27 3b
       -0.044119738 -0.006385193 0.08393777 0.0025574192
000220 be a9 51 3c 6f b6 2a 3c b6 d6 5f 3d 4e 04 02 3e
       0.012796817 0.010419472 0.054648124 0.12696955
000230 95 aa 14 3e 1c ff c1 3d 8e dd f1 3d 74 ff 48 3c
       0.14518197 0.094724864 0.11809836 0.012267936
000240 4e a6 bc bd 66 72 29 bd 47 fc b0 3d c7 6c fe 3b
       -0.092114076 -0.041368864 0.08641868 0.007764432
000250 85 f5 29 bd c4 bb 9d bd e1 0a bf bd 3e e1 b0 bd
       -0.04149391 -0.07701829 -0.09328247 -0.086367115
000260 4a c1 d1 ba 12 dd 81 3d 7e 08 89 3d 8d 44 cf bd
       -0.0016003039 0.06340994 0.06691073 -0.10120497
000270 a7 77 93 3d f7 9c a8 bd 7a a4 b6 bc fb 50 11 bd
       0.07200556 -0.08233064 -0.022295225 -0.03547762
000280 b4 18 ae bc 6d dd 16 bc b7 e8 f4 bd 08 b9 d4 bd
       -0.021252014 -0.009208065 -0.11958449 -0.103868544
000290 de 0a 21 bd fc 8d 95 bc 97 9f 3b bc b7 0a b3 3d
       -0.039317004 -0.01825618 -0.011451623 0.08742278
0002a0 55 f3 9d bd 4c b3 04 3d ff 07 12 3e 47 11 07 bd
       -0.077124275 0.032397553 0.14260863 -0.03297546
0002b0 ff bd d8 3d cc 22 76 3d 5a 16 bc bd b5 92 9d 3d
       0.10583114 0.06009178 -0.09183951 0.07693998
0002c0 72 fb 65 3c 17 e7 69 bd 6f 37 96 3d 40 35 0e be
       0.014037 -0.05710515 0.07334792 -0.13887501
0002d0 19 27 f2 3c 04 23 86 ba ab 3a cd 3d a1 55 6d 3d
       0.029559659 -0.0010233824 0.10020956 0.05794299
0002e0 00 bd 42 3d 86 53 55 3d b8 06 08 bd ac bb 4b bd
       0.047543526 0.052081607 -0.033209532 -0.049739525
0002f0 4b 60 0b be 42 ef 82 3d 21 3b 12 3e 98 09 14 3e
       -0.13610952 0.06393291 0.14280368 0.14456785
000300 6f 08 02 bc f3 f8 79 3c e0 a2 8b bd 5c db 81 bd
       -0.007936581 0.015257108 -0.06818175 -0.063406676
000310 eb 77 9e bd e0 f9 29 3d cc 0d d0 bd b1 63 b5 3c
       -0.07737716 0.041498065 -0.101588815 0.022142263
000320 41 ff 46 3d 2e e3 de 3d 64 39 b4 bd a0 50 86 bd
       0.048583273 0.10883175 -0.08800009 -0.06558347
000330 01 a7 80 bd bf 10 af 3d df 9f bb bb ff cb 83 3d
       -0.062818535 0.08548116 -0.005725845 0.064353935
000340 59 5d 3c 3d ed 0c 1c 3b 4e ec 69 3b 03 a2 89 bc
       0.04598746 0.0023811415 0.0035693827 -0.016800886
000350 8d c4 28 3d 0e 53 0d bd bf f5 b7 bc 9d b8 85 3b
       0.04120307 -0.034503035 -0.022456048 0.0040808455
000360 8e 3d de bd 92 35 6d bd f6 1e d2 3d 74 3f 9a bd
       -0.108515844 -0.057912417 0.102598116 -0.07531634
000370 8f cd f2 3b df 23 0f 3e 2a 95 28 3d c9 d5 8c bb
       0.0074097584 0.13978527 0.04115788 -0.004297946
000380 f6 3b a9 bd 30 69 40 3d 9f 3c b5 bd c5 39 44 bc
       -0.0826339 0.046975315 -0.08849453 -0.011976664
000390 45 5e b3 3a c3 d1 98 3c 92 29 43 3d c5 94 d8 3d
       0.0013684711 0.01865471 0.047647066 0.105752505
0003a0 04 34 23 3c df 02 bb 3d fd ef 77 3d 50 03 62 bd
       0.009961132 0.09131407 0.060531605 -0.05517894
0003b0 75 af de 3d 75 66 e1 bc 40 4e 3c bd a2 cf 43 3d
       0.108733095 -0.027514676 -0.045973063 0.047805436
0003c0 79 a2 2c 3d 3e 5f b3 3d 8a 82 a6 bc 3c 7f 07 3d
       0.042147133 0.087584004 -0.020325918 0.033080325
0003d0 44 df b4 3d 85 2e 85 bd aa d1 1b 3e a0 ad e4 bc
       0.08831647 -0.065030135 0.15216699 -0.027914822
0003e0 4f a6 b5 3d 88 8f 72 3d f9 ba 5e ba b4 5a 53 3d
       0.088696115 0.059218913 -0.0008496489 0.051600173
0003f0 8b 40 ef 3d 5f 01 2b 3b d9 29 89 bc b9 00 f3 3c
       0.116822325 0.0026093347 -0.016743587 0.02966343

conv1.bias f4 [64]
000000 58 5d 81 3d 31 a2 04 bc 94 76 a9 3d 57 dc 60 3d
       0.06316632 -0.00809531 0.0827457 0.054897632
000010 cd 19 dd 3d b3 35 2a 3d b8 be f8 3c bd 97 d0 3d
       0.10795937 0.041555118 0.03036438 0.10185192
000020 e3 6f ea 3d 32 df c1 bb 72 7e d8 3d 92 03 3e bd
       0.11447122 -0.0059164995 0.105709925 -0.046390124
000030 21 77 e2 3d 69 55 ea 3c 25 3a d9 bd b3 c9 c4 3c
       0.11057878 0.02860518 -0.10606793 0.024021959
000040 72 fe 98 bc fe e2 e4 3d ec 86 03 3e cf 12 2f 3d
       -0.018676016 0.11176108 0.12844437 0.042742547
000050 a1 64 c3 3d 5b 53 44 3d de 8e 17 3e cf a4 2b 3d
       0.09540678 0.047931056 0.14800593 0.04190522
000060 11 cc c6 3b 89 32 90 bc d0 46 90 3c b2 b4 02 bd
       0.006066807 -0.017602222 0.017611891 -0.031910606
000070 d8 1e 95 bd 6f a0 9e 3d 91 20 01 bc 72 45 7f bd
       -0.072812736 0.07745444 -0.0078813 -0.062322088
000080 ba 76 42 3d 07 75 5d 3d f7 dc 8a bd 52 69 74 3c
       0.047476508 0.054066684 -0.06780427 0.014917688
000090 fd 0e 5b bd ad 3a 55 3e 1d 63 ab 3d 19 6d c8 bd
       -0.05348109 0.20823164 0.08368514 -0.09786434
0000a0 c5 ff 09 bd 67 79 78 bc 2c 4a 76 3d 12 97 63 bd
       -0.033691186 -0.015165663 0.06012933 -0.055563994
0000b0 78 ec 40 3d cf 33 99 bd e5 11 4f bb 87 99 cd bc
       0.047100514 -0.07480585 -0.003159636 -0.025097622
0000c0 00 f5 b6 3d f2 4e 63 bd e7 a7 41 bc 1a 6f f0 3d
       0.08933449 -0.05549521 -0.011819816 0.11739941
0000d0 4d bc 43 bd 67 7f 02 3e c1 7e 3a 3d 91 32 a9 bd
       -0.047787 0.12743913 0.04553104 -0.08261598
0000e0 36 a7 6f 3d 48 e8 62 bd 16 7e 72 3d e7 52 ed 3d
       0.058509074 -0.055397302 0.059202276 0.11588078
0000f0 97 7d ab 3d de c7 f9 3a 5b 0c 9c bc 08 74 b0 bd
       0.08373564 0.0019056757 -0.01904886 -0.08615881

conv2.weight f4 [32, 64, 1, 1]
000000 a0 22 19 be 47 92 2a 3d 8d 00 88 bd 50 b5 9d bd
       -0.14954615 0.041643407 -0.0664073 -0.07700598
000010 24 a4 a8 bd 1d 06 08 bd 25 e6 f6 3b 5d 56 63 bd
       -0.08234432 -0.033208955 0.0075347596 -0.055502284
000020 24 c9 3c 3d fc 2c f9 3d ea 26 da bd 20 3b d8 be
       0.04609026 0.12166783 -0.106519535 -0.4223261
000030 2e 7e e1 3c a3 d9 14 bd 0a 4c c9 3d 65 2d c9 3e
       0.027525987 -0.036340367 0.098289564 0.39292446
000040 60 65 72 3c 6a 77 53 3e 0c 3a 00 bb ba f8 a1 3c
       0.0147946775 0.20651022 -0.0019565849 0.019771922
000050 ff f6 be bd 2d 61 0a 3e 76 09 7b 3d c5 09 6e be
       -0.093244545 0.13513632 0.06128832 -0.23245914
000060 fc f1 84 bd a2 81 8f bd 21 98 30 bb de 8e 9b bc
       -0.06491467 -0.07007147 -0.0026946145 -0.018989023
000070 80 f1 fd 3c 02 a4 f2 3c 2f 1d 94 3d 74 28 74 3d
       0.030998945 0.02961922 0.07232129 0.05960889
000080 ba 32 74 3e eb 4f d5 3d 60 25 b1 bc 0f 14 d1 bd
       0.23847476 0.10415634 -0.021624267 -0.10208904
000090 03 71 1f 3d ca a9 60 bd a3 aa 0c 3e b5 09 e7 bb
       0.038926136 -0.054849423 0.13736968 -0.0070507177
0000a0 91 69 c8 3d f9 8e dd bd 21 40 fc 3e 60 55 06 bc
       0.0978576 -0.108182855 0.49267676 -0.008199066
0000b0 6c 69 98 be 03 54 29 3e d6 a3 16 3e 11 5f 19 3e
       -0.2976793 0.16535954 0.14710936 0.14977671
0000c0 49 cb 11 bf 32 b6 5a bd 9e 8d 82 bd a6 80 17 bd
       -0.56950814 -0.05339641 -0.063746676 -0.036987923
0000d0 e7 7f 85 3d de 01 91 3e ad 8a 07 bf 48 8d 72 3d
       0.06518536 0.28321737 -0.5294598 0.059216768
0000e0 0a 9b 19 bf 55 01 46 3e f8 54 ed 3d 3e 67 3b be
       -0.60002196 0.19336446 0.11588472 -0.18301103
0000f0 d3 e6 8f bd 9d c1 11 3e 53 6e 88 3c b7 d9 7b bd
       -0.07026448 0.14234014 0.01665417 -0.061486926
000100 d3 5b 05 be fc ad 66 b9 9a d9 4a bd 7a 8a 94 bd
       -0.1302331 -0.00021999324 -0.049523927 -0.07252975
000110 38 ac 55 3c 73 b0 da 3d 7a 16 c6 3d c6 5c 73 3d
       0.013041548 0.10678186 0.09672256 0.059414648
000120 14 be da bd f7 5f 81 3d 4f 17 60 3d 97 ae 02 3d
       -0.10680786 0.06317132 0.05470973 0.031904783
000130 07 42 5a bd b7 a6 89 bc a2 da 8a bd 8c c5 13 bd
       -0.053285625 -0.016803129 -0.06779982 -0.036077067
000140 f8 03 fa bc c6 29 c1 bc d0 5e 08 be 49 39 f3 3c
       -0.03051947 -0.02357949 -0.13317418 0.029690402
000150 55 c2 ea bd a4 43 d5 bd 90 e1 1f 3d 1b aa dc bd
       -0.11462847 -0.10413292 0.039033473 -0.107746325
000160 ec 6b e5 3d d3 32 e4 3d 55 b9 49 bd 14 75 0b bd
       0.11202225 0.111425065 -0.049249012 -0.0340472
000170 4b 4f d3 bd 2d 4a f3 bb 21 c6 21 3c fd 9b 97 bd
       -0.10317858 -0.007424614 0.009873898 -0.07402799
000180 e9 56 06 3d 39 5a bc bc a6 3a 47 bd 11 8c 61 bc
       0.032797728 -0.02299224 -0.048639916 -0.013766305
000190 a2 9f 08 be 9b 05 cb bd 56 e9 67 3b 27 66 de 3d
       -0.13342145 -0.099131785 0.0035386882 0.10859328
0001a0 5d 55 c2 bd af 20 a1 3d 31 dd ba 3b 48 47 5c bd
       -0.09488938 0.07867562 0.0057026376 -0.053778917
0001b0 15 bc 88 ba fb 9f 45 3d 72 b2 2d 3b 44 7a c9 3d
       -0.0010432029 0.048248272 0.0026504067 0.098377734
0001c0 1b 67 03 bd 69 6b c5 bd 60 93 ce 3d a8 bf 26 bd
       -0.03208075 -0.096396275 0.10086703 -0.04071012
0001d0 30 3c 8a 3d 57 39 92 3d 97 ff 4b 3c 5f 1b e8 bd
       0.06749761 0.07139843 0.012451074 -0.113333456
0001e0 16 8a 01 be ae ae 40 3d b2 72 90 3c 1e ad 80 3d
       -0.12650332 0.047041588 0.017632816 0.062830195
0001f0 4c 4b e8 bd c9 c3 30 bd e6 3e c4 3d 95 9f 57 3d
       -0.11342487 -0.043155465 0.095823094 0.052642424
000200 e1 2a 4f 3e 3b a3 15 3e 38 eb 93 bd 20 d4 11 be
       0.20231201 0.14613049 -0.07222599 -0.14241076
000210 ff 4c 5c bd cf 7e 0b 3d 61 db 38 3d 9f a8 98 3b
       -0.053784367 0.03405648 0.04513109 0.004658773
000220 90 6b b5 3c ef 9f 54 be e2 92 96 3d 79 e8 29 3e
       0.022146016 -0.20764135 0.073522344 0.16592588
000230 67 dd 3f bd c1 68 d7 3d 78 b1 6f bd 75 fe fb bd
       -0.046842005 0.10518027 -0.058518857 -0.12304393
000240 92 76 a0 bc 04 2b 40 bd 8b 68 dd 3d e8 cd c3 3b
       -0.019587789 -0.046916023 0.108109556 0.0059754737
000250 19 be db 3c 80 62 9e 3c e5 2d 9c bb 64 27 c8 3c
       0.026824044 0.019334078 -0.0047662132 0.024432845
000260 a8 f5 85 3e 7e 3d af be d1 97 0c bd 7f 12 b0 3d
       0.26163983 -0.34226602 -0.03432447 0.08597278
000270 60 41 c7 bd 9e b9 38 3d 5e 47 f2 3c c4 3b e5 3b
       -0.09729266 0.045098893 0.029575046 0.00699565
000280 40 8d c4 bd 63 a1 3c be 54 3a e6 3d ef 80 f6 3c
       -0.09597254 -0.18420939 0.11241594 0.030090777
000290 4a 7f d8 3d 5a bd a1 bc a3 8d 74 3d 4e 0a 05 3d
       0.105711535 -0.01974361 0.059705388 0.03248053
0002a0 90 53 88 bc 79 3e 2b be fb 06 da bd 56 e9 c6 3d
       -0.016641408 -0.1672305 -0.10645863 0.09712474
0002b0 4f 71 18 3f bb 95 ae bd ab b1 d3 bc ac 90 42 3d
       0.59547895 -0.085246526 -0.025841555 0.04750125
0002c0 5e c9 c6 be fd 2e 1d 3d fa c0 b0 3d ae cc 7a b7
       -0.38825506 0.03837489 0.08630557 -1.4948817e-05
0002d0 0c e9 b7 bc a5 25 b4 bc d4 ba 96 3e a9 8b d4 bd
       -0.022449993 -0.021990607 0.29439414 -0.103782006
0002e0 d3 51 22 3d 6f ef 0b be 89 93 64 3d 58 a4 b2 3d
       0.039628815 -0.13665555 0.055804763 0.08722752
0002f0 f4 b9 f4 bd 28 c3 4a 3d f2 5b 87 bd 60 e2 4e bd
       -0.1194953 0.04950252 -0.06609334 -0.050508857
000300 7b 51 2b 3d 19 88 e7 bb 3e 83 46 3e 84 de 24 be
       0.041825753 -0.0070657847 0.19386002 -0.16100508
000310 f5 5e 52 3d 64 fc 45 3c f4 40 a5 3d df 52 01 3e
       0.05136009 0.0120841 0.080690295 0.12629269
000320 3c 52 ab bc 0e 4d c0 3d c7 b4 0f 3d 2b 66 9d bb
       -0.020913236 0.09389697 0.035084512 -0.004803439
000330 f0 b7 17 be ae 0b 9d 3d aa 0f f1 3d 95 48 19 bd
       -0.1481626 0.07668243 0.11770566 -0.037422735
000340 7f 99 1f 3c 67 22 ed be 55 b1 e6 bd 5b 10 e3 3d
       0.009741186 -0.4631531 -0.11264292 0.11087104
000350 d4 66 0a 3e 25 59 55 bc ce fd 6b bd ab 4f 10 3e
       0.13515788 -0.013021742 -0.057615094 0.14092891
000360 52 29 cd 3c 93 73 86 bc 91 04 43 be b7 62 26 3a
       0.025044117 -0.016412532 -0.1904471 0.0006347107
000370 e6 89 c5 bd 46 7b 43 bd 89 79 ed 3d 89 68 3c 3d
       -0.09645443 -0.047724985 0.115954466 0.04599813
000380 00 a9 12 be ac 3d 28 3e 6a 3d cd 3d 9c fb 84 3d
       -0.14322281 0.16429776 0.100214794 0.06493303
000390 8b b0 7b 3d 70 0b 11 3e 16 ad f3 3d 01 dc cf bd
       0.06144766 0.1416452 0.11898248 -0.10149384
0003a0 01 d6 b0 bc eb fd 1c be 7b aa 02 bd 52 04 aa bd
       -0.02158642 -0.15331237 -0.031900864 -0.08301605
0003b0 de 00 c1 be f1 e9 96 bd b1 3d 9e bc e8 99 fa 3d
       -0.37695974 -0.073688395 -0.019316526 0.122363865
0003c0 c9 08 d0 3e d6 3f c2 3c 98 ba 1f be 94 89 be bd
       0.40631703 0.02371208 -0.15598524 -0.09303585
0003d0 61 7f f1 bc d7 b3 10 be ce b9 4e be 70 3c a3 3c
       -0.029479684 -0.14131103 -0.20188066 0.01992628
0003e0 16 d7 de bc 70 54 d1 bd ff 94 16 3e 96 e2 60 bd
       -0.02720217 -0.10221183 0.14705275 -0.05490359
0003f0 c8 96 2d be 19 04 4f 3e 28 cf 0b 3e d0 6c d0 bd
       -0.1695205 0.20216407 0.13653243 -0.10177004

conv2.bias f4 [32]
000000 c5 c1 85 3d f2 99 76 bd ed ba 80 3d df d3 1d 3e
       0.06531099 -0.060205407 0.06285653 0.15412854
000010 92 f5 8c 3c 56 c4 c8 3d 49 71 64 bd c9 a7 b4 3d
       0.01720694 0.09803073 -0.0557721 0.08821065
000020 5e 46 09 bd a6 53 9f 3d d9 9e 05 be 86 f4 d2 3c
       -0.033514373 0.077796265 -0.13048877 0.025751363
000030 ab cf 82 3d e3 33 70 bd 19 82 b0 3d f4 a9 dd 3c
       0.06387266 -0.058643233 0.08618564 0.027058579
000040 c7 95 e4 3d 56 93 35 bd fa df c5 bc 9f ef a6 3d
       0.1116138 -0.044329964 -0.024154652 0.08151173
000050 1d d5 6d 3c 5c 0b 78 bd 70 4f 67 bd 57 26 bc bd
       0.014516142 -0.06055771 -0.056472242 -0.09187
000060 4e db 00 be 04 a1 58 bd 0e 74 b8 3c db 9a de bd
       -0.12583658 -0.05288793 0.022516277 -0.1086938
000070 8b dc 64 3d 58 7c 0b be 19 12 ea bd 0f 73 76 3c
       0.05587439 -0.13621652 -0.11429233 0.015042081

conv3.weight f4 [1, 32, 5, 5]
000000 e8 6f 00 bc d4 91 96 3c 2d 9b 8c bb fa 30 49 3d
       -0.0078391805 0.018380083 -0.0042909593 0.049118973
000010 49 a6 41 bc 07 78 a1 3b b3 50 27 bd 85 e2 01 3d
       -0.011819431 0.0049276385 -0.040848445 0.031710166
000020 4b 4b 90 bb 0c b6 d5 3c a8 54 ff 3b a4 63 8d bc
       -0.004403507 0.026087783 0.0077920742 -0.017259426
000030 63 98 85 bc ac 86 92 bc ab 22 a7 3c ae 5d 29 3d
       -0.016308015 -0.017886482 0.020402273 0.041349106
000040 30 ec 1b 3d 1a 6a 88 bc 0c 5b a2 bc dc 4c a2 bc
       0.038067043 -0.016652156 -0.019818805 -0.01981204
000050 09 53 12 3c b0 d8 6c 3c 61 e4 c0 bb ca 61 00 bd
       0.00893093 0.014455959 -0.0058866 -0.03134326
000060 4a 0f 0b 3b 9f 41 08 37 66 25 df bc 23 0b 0c bc
       0.002121883 8.12151e-06 -0.027239513 -0.008547577
000070 70 f6 c0 b9 55 14 08 bd 61 a8 c3 3b 01 07 30 3c
       -0.00036804704 -0.033222515 0.005971 0.010743857
000080 64 8a 13 bb ae e0 79 bb 0e 46 00 3b 9c 38 25 3c
       -0.0022512907 -0.0038128304 0.0019573006 0.0100842975
000090 c1 24 82 bc 77 30 11 bb 9e 32 af 3c 18 81 17 bc
       -0.015886666 -0.0022154131 0.02138644 -0.009247087
0000a0 b9 1e 88 3a 61 91 01 bd 28 8d d3 bc 2e ea 16 bb
       0.0010385133 -0.031632785 -0.025824144 -0.0023027766
0000b0 b0 8b 35 bc 67 d2 10 3d 28 01 d8 bb ba 1f e9 bc
       -0.011080667 0.035356905 -0.0065919347 -0.028457511
0000c0 ad 84 ff 3c d7 4f b2 bc 50 5d 04 3d 5a 27 98 bb
       0.031191194 -0.021766586 0.032315552 -0.004643363
0000d0 c0 3e b5 3b 7e 80 12 bd e6 b1 03 3d 03 6b 7d 3b
       0.005531162 -0.03576707 0.03215208 0.003866852
0000e0 65 14 9e bc e2 44 d9 bc 9c 14 9a 3b 15 c8 01 bd
       -0.019296834 -0.026522104 0.004702164 -0.031684954
0000f0 cc 2a e7 3c 2c d1 ae 3c 3f 7f 20 3d 31 aa 0a 3d
       0.02821865 0.021339975 0.03918385 0.033853713
000100 c5 5d a5 bc 44 2d 60 bc 52 20 a3 3c 06 42 eb 3c
       -0.020186314 -0.013682667 0.019912872 0.028718006
000110 db 44 0f 3d 93 30 7c bc 49 b2 80 3a a2 bd 51 ba
       0.034977775 -0.01539244 0.0009818758 -0.0008000975
000120 93 46 d4 3c 34 34 8f bc 56 10 05 3d 4e c5 4a bc
       0.025912559 -0.017480947 0.032486282 -0.012376143
000130 e8 2c aa 3c f0 cb f2 3c 64 6a 1b bd bd ee 7f 3b
       0.020773366 0.02963826 -0.03794326 0.0039052211
000140 69 f4 f2 bc 6c 1c 9f 3c da f2 0f 3d 3f 61 5f bc
       -0.02965756 0.019422732 0.03514371 -0.013634025
000150 8e f3 b7 bc cd 09 e3 bc 93 99 d3 3c f8 7d c9 ba
       -0.022455003 -0.027714634 0.025830066 -0.0015372625
000160 d6 9d 00 bd a3 64 02 3d e7 95 9f 3c 47 be 63 bb
       -0.031400524 0.031834256 0.019480659 -0.0034750865
000170 57 ac ec 3b 2d 56 a6 ba 30 84 21 3d 04 d1 99 3c
       0.007222693 -0.0012690477 0.039432704 0.018776424
000180 8c 57 06 3c 09 11 dd 38 12 f1 ed 3b 6d 09 c7 bc
       0.008199584 0.00010541274 0.007261404 -0.024296487
000190 de 57 84 3c 8a 94 6b 3c 4c 7a e6 3b ae 4c ae 3c
       0.01615518 0.014378676 0.007033622 0.021276798
0001a0 71 d4 cb bb df 6d 0e bd c6 b9 f6 bc 14 f6 15 3d
       -0.0062203933 -0.03477275 -0.03011788 0.03661163
0001b0 b0 76 32 bc c3 1c db bc ff a3 13 3d 9b ac c4 bc
       -0.010892555 -0.026747113 0.03604507 -0.024008086
0001c0 0c f8 01 3d 50 ee 01 3d 43 c8 c4 bb a5 da ba 3c
       0.031730697 0.031721413 -0.0060053184 0.022809336
0001d0 9b 6f e1 3c 19 52 0b bd 20 50 a9 bc e6 49 3d 3b
       0.027519038 -0.03401384 -0.02066809 0.0028883158
0001e0 23 a4 4e 3c 3c c2 c9 bc a8 28 fa bc 48 d0 0c 3d
       0.012612375 -0.024628751 -0.030536965 0.03437832
0001f0 00 14 73 bc 26 41 08 bd bb 5e 58 3c 53 c1 a1 bc
       -0.014836311 -0.033265255 0.013206179 -0.019745504
000200 20 de 87 bc 53 ce 65 bc d1 0c 07 3d 59 41 59 3c
       -0.01658541 -0.014026242 0.032971207 0.013260209
000210 78 76 22 3d 54 87 21 bc 37 82 ff 3c 56 7c e0 bc
       0.03966376 -0.009858925 0.031190021 -0.027403038
000220 2a 97 bd 3c 48 6d 18 3c 71 3b d0 3b a7 fa 12 3d
       0.02314337 0.009303398 0.006354742 0.035883572
000230 4e 51 1f 3b 07 eb 88 bc 81 80 9d bc 6b a8 8b 3b
       0.0024309936 -0.016713632 -0.019226314 0.0042620203
000240 af d5 42 bc 39 f0 89 3c b1 52 06 bd dc 68 ca bc
       -0.011891766 0.01683818 -0.032793704 -0.024708204
000250 6a 48 ee 3c 9f 4a 6c bc 02 89 0e bd 04 8c b5 3c
       0.029087264 -0.014422088 -0.03479863 0.022161491
000260 4d c8 93 bb 97 19 2b 3b 11 90 d3 3c 33 57 7a 3c
       -0.0045099617 0.0026107782 0.025825532 0.015279579
000270 dd 02 fb bc 60 23 83 3c b9 04 29 3d 86 74 68 3b
       -0.030641014 0.016008079 0.04126427 0.0035469844
000280 97 3d 0b 3d 7c 56 2d 3d eb f5 ef 3c 19 0d b1 bc
       0.033994284 0.042318806 0.029292068 -0.02161269
000290 b2 00 18 3d 1a 46 0d 3d 29 15 98 3c 49 ce 14 3c
       0.037110038 0.034490682 0.018564777 0.009082385
0002a0 49 d5 81 bc 95 60 5f 3c 51 a5 d2 bb d5 c1 18 3d
       -0.015848773 0.013633867 -0.0064283987 0.037294228
0002b0 43 98 e4 bc 26 09 6c 3c 28 da b4 3b 7d b6 9e 3b
       -0.027904635 0.014406478 0.0055191703 0.0048435316
0002c0 d9 ce c2 bb c4 82 84 3c a0 6c b4 bc 58 11 d0 3b
       -0.0059450683 0.016175635 -0.022024453 0.006349724
0002d0 7b 7a b3 bc 46 f6 9e 3b 6c 0e e9 3a 58 d7 b2 3c
       -0.02190899 0.0048511354 0.0017780787 0.0218312
0002e0 8f 4c c0 3c 5d 19 b6 bc ae 8b 34 bd 24 2e 8d bc
       0.023474006 -0.022228891 -0.04407852 -0.017233916
0002f0 a5 fb 31 3d e1 7d ed bc 28 b6 69 3c f1 60 a6 bc
       0.043452878 -0.028990688 0.014264621 -0.020309897
000300 30 2c f1 3b 68 ff de 3c e9 af 57 bc 68 76 d9 bc
       0.007360004 0.027221397 -0.013164499 -0.026545718
000310 76 5c 89 3c 6f 63 1f 3d d0 67 d9 3c c2 7b ae bb
       0.016767722 0.038913187 0.02653876 -0.0053248117
000320 e8 e5 a6 3c 29 8a a1 3c 20 5b 0b 3d a4 5e 54 bc
       0.0203733 0.0197192 0.03402245 -0.012962017
000330 82 e7 b3 3c 3e bc 02 bd 3e 3c 04 bb 51 d3 99 3c
       0.021960977 -0.031917803 -0.0020177509 0.018777521
000340 db 31 83 bc 43 1c 39 bd 23 31 75 bc 79 15 4a 3d
       -0.016014984 -0.045192968 -0.014965328 0.049336884
000350 9f c7 8f 3d 1a d0 12 bd 39 3c d3 3c 2e 9e 2a bd
       0.070204966 -0.035842992 0.025785552 -0.04165476
000360 aa f1 09 bc ee b3 28 3c b5 78 82 bd ee af 01 bd
       -0.008419434 0.010296805 -0.06370679 -0.03166192
000370 c7 51 dc 3b f5 08 d1 bc 4b 6c 8c bc 0f bc 07 bd
       0.006723616 -0.025516966 -0.017141482 -0.03313833
000380 bc 70 b1 ba a9 f7 88 3c 64 68 08 3c ab f0 1e bb
       -0.0013537626 0.016719656 0.00832567 -0.0024252336
000390 67 6d 12 3d cd d7 ed 3c 09 dd af bc 8e 8b b7 3c
       0.035748865 0.029033566 -0.021467702 0.022405412
0003a0 9a 80 c0 bb a4 b3 37 3c f4 2c 74 3b 7a 7e 6b 3c
       -0.0058747055 0.011212263 0.003725824 0.014373416
0003b0 f5 73 7f bc 57 88 90 bc fa 3b ca bc b6 59 ca bc
       -0.015591611 -0.017643137 -0.024686802 -0.02470098
0003c0 30 e1 82 bc be 4d 1f 3c 82 a4 0a 3c 38 dd 32 3b
       -0.015976518 0.009723125 0.008462073 0.0027292501
0003d0 ca 15 cb 3c 6b 8c e4 3c b9 f2 01 3d d4 9d bc 3c
       0.024790663 0.027898988 0.03172562 0.023024477
0003e0 3a 0b d7 3a b7 b0 3f 3c 3f 4e 08 bd 3e 0d 37 bc
       0.0016406544 0.011699847 -0.033277746 -0.011172591
0003f0 6a 1e cf 3b 2e 09 9b bc a1 ac 20 3d 20 20 c1 bc
       0.0063207643 -0.018925276 0.03922713 -0.023574889
